kmitbot/data.pth (torch, 18239 bytes, 6 tensors)

l1.weight f4 [8, 263]
00000000: 52aa 083e aa47 483e 9805 183b 6c5a b4bd
00000010: 1816 f5bd 54df 4fbe 0d42 03be f64d 05bf
00000020: b252 51bf 09f2 46bf fc70 20bf 1c77 f3be
00000030: 50a7 24bf a64a 2bbf dbee ebbe ac3d 23bf
00000040: 7784 5dbe eb59 0abf a698 363f 8348 c53e
00000050: 7c83 c13e 2375 d53e 220d 07be 1b5f 86be
00000060: 2695 c73f ecbb c03e fe36 cabc 78fc c4be
00000070: 2f90 56bf 0440 4c3f c301 783e 70d2 0fbe
00000080: 72e7 573e bea3 66be 8326 0f3e 24f5 ff3e
00000090: 3aac f53d d151 703f dde8 fcbe 044e 583f
000000a0: 2da8 923d 65f5 e1bc 2cd4 69bd f8b9 fcbd
000000b0: c331 96bc e983 b63e 6fc3 fbbe 01c5 013f
000000c0: 2301 ccbe bbe2 483e 5566 803e 90f6 a33e
000000d0: 27ef 723f 3437 dfbe 2265 b83e d29d e7be
000000e0: 9636 ca3e f741 c2be f59a 88bd 9387 263f
000000f0: 5b43 8f3e e705 743e 5fe8 853f df9f 99bf
00000100: a528 253f de34 ff3d 8162 e6bc df1a 1e3f
00000110: 64fa 6f3f cf76 963c ab24 a83f c877 043f
00000120: fd06 893f 9d60 323f f4ba 82bc 59ba 0f3f
00000130: 3fae 71bf 5b8d c23e ec99 1f3f c17e 393f
00000140: 498c c03e 0d0c b23e f5fa 273f 95a4 d5be
00000150: 3615 9f3c bab2 3e3e 19f3 253d 20d1 71bf
00000160: d808 c53e bc52 253f 6d27 c23e 64e2 f7bd
00000170: 4fa5 a43e cd38 353f bbe9 7bbe c0a0 813e
00000180: 8330 aa3d 16f7 8a3e 664e 043f 93c6 35bf
00000190: 5847 293f ee3b 93bd aea4 f83e 5dbc af3e
000001a0: 637e a23d 6d8b 8e3f cc73 eb3e c3d1 c0be
000001b0: f7a7 1c3d e6d4 31bf 6043 0abf e159 3dbf
000001c0: bde8 f13e d784 dcbe 21a2 8d3e 2276 3cbe
000001d0: 09ea 9cbe be8c 973e 3642 efbe 8e7f 113f
000001e0: 56f6 69be 4032 ae3e 4e4a 053f 78d0 1b3f
000001f0: 0a08 5bbe a8b7 8a3e 4b4a c03e af4d d93e
00000200: 1384 c73e 387e 9ebd 6a0c 79bf 1115 d13e
00000210: d52a a63e a6f8 aebe 7fc4 65be 2082 593d
00000220: 5ccc 66bf 3f8f 6cbc e7f7 78bd 5522 e43c
00000230: b5ac d9be 149f cbbe 9c8e 22bf d1de fabe
00000240: d79a 833f 357f 203f 854e 093f fd6c 81be
00000250: 63b4 9c3e 7e2a 30bc 217d 473f aadb a33e
00000260: 0c18 dabe 9344 c03e 12be b53e a25f 313e
00000270: 90a7 dd3e 26d9 30be e40d 31be 80ef f7bd
00000280: f220 133f ff58 e9bd 4bf3 27be ebca 763e
00000290: aa0f 60bc fae1 d03e af48 34be 18de c4be
000002a0: de7d d8be ad92 32bf 6d08 893d 3716 f4be
000002b0: 2db8 c43e 3cf8 92bf ca3b dabe 7174 35bf
000002c0: f704 493f e482 063f e502 2b3f 07f4 d13e
000002d0: 7e7d 6f3e 2f1c 89bf ee48 673e 1d3e f63e
000002e0: b4b2 253f 603c 8fbe c1a8 b13e 496e 80be
000002f0: dae1 8e3e 2a32 883e ae93 683f 142e af3e
00000300: e6b6 6dbe 253e b43e 093c b33e 2ec9 bd3e
00000310: 56ed 08bf 2682 a03f 9ed9 3fbf 0de7 2dbf
00000320: fb31 593f e772 80be ac32 b83f 28b4 c13e
00000330: 27f9 453f 0af0 093f 88fc 2fbe ae6c bc3e
00000340: 63e0 b6be a8ed 703e 6cbf f83e 558d f93e
00000350: 237a 093f 968b 453f f1a0 33bf 6a87 7b3e
00000360: 7888 453e f39c 47bd afc5 703f b976 ca3c
00000370: 449e d6be 3edc 78bd 033c de3d 307b 103f
00000380: c423 db3e 4123 273f dc8e d93c 748b 67be
00000390: 3b74 efbe 71a7 e23c 15ce 763f d6bd fa3e
000003a0: 12ab 1d3f 3d5e 13b9 6241 883d 6534 4dbf
000003b0: b466 f43e ef4a 9b3e 299b 823f 2e43 133f
000003c0: dfca c23e e012 eb3e 5861 4dbf 5827 db3e
000003d0: ab73 093f d4cc 18bf 39a2 043f b110 d93e
000003e0: b186 be3e 13ee dc3e a130 a53f d943 e43f
000003f0: d40d 59be 3566 d4be ca6d 2dbf c83c cebe
0.13346222 0.19558588 0.0023196694 -0.08806309 -0.11967105 -0.20300037 -0.12818165 -0.52072084
-0.8176681 -0.77713066 -0.626724 -0.4755181 -0.643178 -0.6691078 -0.4608067 -0.6376598
-0.21632563 -0.54043454 0.71326673 0.38531885 0.37795627 0.4169093 -0.13188604 -0.26244435
1.5592391 0.37643373 -0.024684425 -0.38473868 -0.83813757 0.7978518 0.24219422 -0.1404512
0.21084383 -0.225234 0.13979535 0.49991715 0.1199574 0.9387484 -0.4939641 0.8449404
0.07160983 -0.027582834 -0.05708711 -0.12340158 -0.018334275 0.35647514 -0.49172541 0.5069123
-0.39844617 0.19617741 0.25078073 0.3202405 0.9489617 -0.43596804 0.36014658 -0.45237595
0.3949477 -0.37940952 -0.06670181 0.6505062 0.27981076 0.23830377 1.0461539 -1.2001914
0.64515144 0.124612555 -0.028123142 0.6175975 0.9374144 0.0183672 1.313619 0.5174527
1.0705258 0.6967867 -0.015958287 0.5614372 -0.94406503 0.3799847 0.6234424 0.72459036
0.3760703 0.3477482 0.65617305 -0.4172713 0.019419294 0.18622866 0.04051504 -0.94459724
0.3848331 0.6457937 0.37920704 -0.121037275 0.3215737 0.70789796 -0.2460088 0.25317955
0.08310034 0.27141637 0.51682127 -0.71006125 0.66124487 -0.07189165 0.4856314 0.34323397
0.079342626 1.1136299 0.45986784 -0.37660035 0.03824612 -0.6946548 -0.54009056 -0.7396527
0.47247878 -0.430701 0.27662757 -0.18404439 -0.30647305 0.29599565 -0.46730202 0.5683526
-0.22847876 0.34022713 0.52066505 0.60864973 -0.21389785 0.27093244 0.3755668 0.4244208
0.38967952 -0.07738918 -0.9728457 0.40836385 0.32454553 -0.3417408 -0.22438239 0.053102612
-0.9015558 -0.014438449 -0.060783293 0.027848402 -0.42514578 -0.39769804 -0.63498855 -0.4899812
1.0281628 0.626941 0.53635436 -0.25278464 0.30606374 -0.010752318 0.77925307 0.32003528
-0.4259647 0.37552318 0.35496575 0.17321637 0.43291903 -0.17270336 -0.17290455 -0.12106228
0.57472146 -0.11393928 -0.16401403 0.24100845 -0.01367561 0.40797406 -0.17605852 -0.38450694
-0.4228353 -0.6975506 0.0669106 -0.476732 0.38421765 -1.1482005 -0.4262374 -0.708808
0.785232 0.52543473 0.6680129 0.4100649 0.23387715 -1.0711726 0.22586414 0.48094264
0.64725804 -0.2797575 0.34699062 -0.2508414 0.27906686 0.26600772 0.9085034 0.34214842
-0.23214301 0.35203663 0.3500674 0.3706755 -0.53487146 1.2539718 -0.7494143 -0.6793068
0.8484189 -0.25087664 1.4390464 0.3783276 0.773333 0.53881896 -0.17186177 0.36801666
-0.35718068 0.23528159 0.48583543 0.4874064 0.5370199 0.77166116 -0.7016745 0.24563375
0.1929034 -0.048733663 0.9405164 0.024714814 -0.41917622 -0.060756914 0.1085129 0.5643797
0.42800725 0.6528817 0.026557378 -0.22611791 -0.46768364 0.027667733 0.96408206 0.48972958
0.6158916 -0.00014054119 0.06653096 -0.8015807 0.47734606 0.30330607 1.0203601 0.57524383
0.38045403 0.45912838 -0.8022666 0.42803454 0.5369212 -0.5968754 0.5181003 0.42395547
0.37212136 0.43150386 1.2905465 1.7833205 -0.21196681 -0.41484228 -0.6774565 -0.40280747

l1.bias f4 [8]
00000000: d2a2 873f ec91 373f 2783 9f3f 372e 853f
00000010: 4543 5e3f 0b86 163f 43b3 6e3f 21f0 3f3c
1.0596564 0.71707034 1.24619 1.0404729 0.86821395 0.58798283 0.9324228 0.011714966

l2.weight f4 [8, 8]
00000000: 9644 893f 6beb 113f 241e 333f 8696 ae3f
00000010: e724 00c0 5026 29bf 07bf 1fbf b9b8 3d3f
00000020: a06e 233f 17c5 563f 19b9 cabf 9bd0 833f
00000030: 093d 153f 9243 78bf 9014 0640 9342 a43e
00000040: 06cf 3240 f7f3 9e3f 082e 7d3f cf5d cebf
00000050: 7dc0 68bf c92e c33f f25d ba3f 4e07 1bbf
00000060: e537 a63f f350 19bf 36ae 1a40 cacb 2e40
00000070: ad4f e43f 2b34 24bd 2859 96bf 85c1 b4bf
00000080: 7fbf ccbe 237b a83f 6eee 0c40 57a1 dabe
00000090: 0598 f1be 114a 15c0 3826 0c3f fe04 bf3f
000000a0: 3e20 9a3f 4cc3 39be 1bf2 0cbd 43f1 963f
000000b0: 6a34 cfbf dec0 71bf 4ba3 fe3f 2159 c2bf
000000c0: da6e 0f3f 7b7b b93f 6f68 35bf 2165 bc3f
000000d0: a4ed 16be 89d0 ecbc 2145 78bf afcf e13f
000000e0: 71e9 afbf 7e05 f83f e462 4cbe c9a5 b03f
000000f0: 200d 74bf e6b5 553f f0c9 fd3e 293b c2bb
1.0724056 0.56999844 0.69967866 1.3639686 -2.0022523 -0.66074085 -0.6240086 0.7410999
0.63840675 0.83894485 -1.5837737 1.0298036 0.5829626 -0.96978104 2.095005 0.32082042
2.7938857 1.2418202 0.98898363 -1.6122378 -0.90918714 1.5248653 1.455992 -0.6055802
1.2985808 -0.59889144 2.416883 2.7311883 1.7836815 -0.040088814 -1.1745958 -1.4121557
-0.3998985 1.3162578 2.2020526 -0.42701218 -0.47186294 -2.3326457 0.5474582 1.4923398
1.204109 -0.18140906 -0.034410577 1.1792377 -1.618787 -0.94434917 1.9893583 -1.518345
0.5602852 1.4490808 -0.7086248 1.4718362 -0.1473909 -0.028908031 -0.9698048 1.7641505
-1.3743116 1.9376676 -0.19959599 1.3800594 -0.9533253 0.8348068 0.4956813 -0.0059274626

l2.bias f4 [8]
00000000: b763 0cbf b440 a9bc 9156 093f 68d7 b23f
00000010: a5a6 693f aca9 673f 155a 83be 81de 643f
-0.5483965 -0.020660736 0.53647715 1.3971987 0.91269904 0.90493274 -0.25654665 0.89402014

l3.weight f4 [67, 8]
00000000: 7c46 823e 8e71 723e 8359 29be f67a d03e
00000010: 95c1 20bf e665 f0be cff9 11bf 80c2 ebbf
00000020: d561 d03e afe3 08c0 a5b1 843e 2621 c13e
00000030: 0766 153e 84e8 093f a022 05c0 307b 2ac0
00000040: 6cf9 00bf 442b 16bc d8cf 683f abe5 c2bf
00000050: 9835 a3bf c9a5 ec3e 2248 c3be 779d 69be
00000060: ddaa d0bd 2246 bf3e 8a88 10c0 de5b 5c3d
00000070: 5f7a 47bf b5d1 ce3e c356 29bd 00ec f03e
00000080: 5b24 8b3e eb02 b4bf a5a3 143f 0ed7 92bf
00000090: b65b 7a3d d38b a1bf 807c 7ebe 45a2 123f
000000a0: 5ad6 1bbf 4e48 59bf f595 03be f49c 9b3e
000000b0: 0b68 c93e eb96 69bf cd80 6dbf a911 fd3e
000000c0: 9122 a83e 7f9c 91bf b710 87bc 953a 47be
000000d0: 6e98 7f3f 612e 93bf 7022 04c0 f12d 18bd
000000e0: a093 de3e 33ec fb3d 5262 653e 8dd9 0ebe
000000f0: 7517 1cc0 94bc 013f e09a 0abe d607 6dbf
00000100: 91c4 973e f4fc c4bf 9dd6 6f3e e2d1 453e
00000110: 430b 26c0 fccc fb3e 6b42 c8be c3b9 283e
00000120: 76c7 13c0 4527 0ebd 9e4f 023f 482d 923e
00000130: fbd8 0cc0 abc9 6f3f b1ee 41c0 7ac5 b7bf
00000140: 6645 a7bf c76b 783e d689 d9bd 3ae0 443e
00000150: 8b89 03c0 590a 9dbf 892e 46be 78d5 283f
00000160: 7c7a b6bd 378f 39be 70af 173f 45cb 47bd
00000170: fae4 93bf e53c b53e b77a d9bf 2a28 333e
00000180: a0b2 9fbe 0980 a53e b5eb 94be fa83 0a3e
00000190: 14a9 13bf d271 d93e 8584 14bf 2a66 843e
000001a0: 7d04 bd3d 23a6 b5bf fbbb 613f 030a 7b3e
000001b0: 3040 01bf 219c 60bf d45d dfbf e596 50bf
000001c0: 43d2 0d3d e23c 48be a1a3 df3e 6f4c 16c0
000001d0: 606e 503f b9f3 1cbf e49c b3be 9a14 5c3e
000001e0: 7ef8 123c 8cd4 4f3d d354 443d 38a0 64bf
000001f0: 3e39 133f 90cc de3e 6592 f9be b862 fabd
00000200: e6af 9a3e fa38 2e3f 9aac 8dbe 1c9c e5bf
00000210: 0517 48bd ced5 953e beae c83d 3881 8bbc
00000220: 781c 7a3e 2a3f 18bf 8d2e bfbf a957 da3e
00000230: 5e13 b2bf f74d 0fbf b4f9 1d3e 3375 cf3e
00000240: f79f 7cbf c9db 153f e086 3f3f b205 9cbf
00000250: ae96 aabf b747 183f d5dc 1cc0 67ac adbf
00000260: fd51 f9be 948b 023f 3547 b0bd 8829 e0be
00000270: a8bf 1ac0 edc1 8d3e d44f a63e 7cda 6b3c
00000280: cdab 5fbf a611 cb3e 3b45 8f3e 883a 39bf
00000290: aa25 383e 3186 343f 5f41 0bc0 33ea 60bd
000002a0: 2ef7 bfbe 0b1a 143e 14c0 e53e 1324 0ec0
000002b0: c3a1 98be 0a64 503e 21e1 a8be 9114 2e3f
000002c0: 5a7e ac3d b6fb 313e c034 9e3e a810 f0be
000002d0: 28a5 c1bc 8f49 08bf 6b58 ecbd 21fc 5abf
000002e0: 6cbd 0f3f c291 393e ee3a 96be 99e5 0cc0
000002f0: 1e88 d33e 18af a6bf e2c7 803e 5226 c13e
00000300: 7cdb bf3e cfda 573e 7bde 95be 2b6b 7a3e
00000310: 69f6 02bf 6a94 483f d35a 93bf 9d48 eabf
00000320: 590f c5bf 0bb0 acbf 4684 85be 1fd4 5c3e
00000330: 6905 c4bf 9c25 08bf 88d7 0f3f 6fba 6d3e
00000340: 6544 e2bf 0820 94bf e682 1f3f 91dd e53e
00000350: 1998 10c0 79b2 3abf 2b57 7fbf 9465 b3bf
00000360: ce70 dbbf dc5f 1bbe 42fd bf3e 4988 1ec0
00000370: 6042 583e 3877 84bf af4f 163f 9e25 213f
00000380: c4bb 0dbf dddf e4bf 412e debe 9540 1fbe
00000390: cde7 5c3d 9c00 2cbf 0dac 223f a9b1 2bbf
000003a0: 219f d8bf d6a9 b3bf becc 673e b6f9 003f
000003b0: 5139 cabf a5ce 26bf 91dc febe 5bae cbbf
000003c0: 10ad 9abf 64b2 703e 5b35 a9bf 7b4e 173f
000003d0: 2c32 f9bf 722d f3be c4ba 843e f443 c7bf
000003e0: ee2b 34bf 4c4d 09c0 3c4f 88bf cd32 5f3f
000003f0: 4450 0dc0 c0c8 74be cf44 6dbe 850a a4bf
0.254444 0.2367613 -0.16538052 0.40718812 -0.6279538 -0.46952742 -0.570218 -1.8418732
0.4069964 -2.1388967 0.25916782 0.37720603 0.14589702 0.53870416 -2.0802383 -2.6637688
-0.5038059 -0.009165589 0.90942144 -1.5226339 -1.275073 0.46220234 -0.3814097 -0.22813974
-0.101888396 0.37358195 -2.2583337 0.05379855 -0.779211 0.4039437 -0.041342508 0.47055054
0.27176175 -1.406339 0.580622 -1.147188 0.06112262 -1.2620796 -0.2485218 0.57278854
-0.6087395 -0.84875953 -0.12850173 0.30393183 0.3933719 -0.9124591 -0.9277466 0.49427536
0.32838872 -1.1375884 -0.016487462 -0.19455941 0.99841964 -1.1498529 -2.064602 -0.03715319
0.43472004 0.12300911 0.22400787 -0.13950177 -2.4389317 0.5067837 -0.13535643 -0.9259008
0.29642156 -1.5389695 0.23421712 0.19318345 -2.5944374 0.49179828 -0.39113173 0.16477112
-2.3090491 -0.03470542 0.50902736 0.28550172 -2.2007434 0.93667096 -3.0301936 -1.435714
-1.3068054 0.24259864 -0.10621993 0.1922616 -2.05527 -1.2268783 -0.19353689 0.6595073
-0.08910081 -0.18121038 0.5925207 -0.048777837 -1.1554253 0.3539802 -1.6990575 0.1749579
-0.31190968 0.32324246 -0.2908608 0.13526908 -0.5767987 0.4246965 -0.5801471 0.25859195
0.09229372 -1.4191326 0.8817746 0.24515538 -0.5048857 -0.87738234 -1.7450509 -0.81480247
0.03462435 -0.19554475 0.43679526 -2.3484151 0.8141842 -0.6130939 -0.35080636 0.21492234
0.008970378 0.05073981 0.047932457 -0.89306974 0.5750922 0.43515444 -0.48744503 -0.1222586
0.30212325 0.6805569 -0.27670747 -1.7938266 -0.048850078 0.29264683 0.097989544 -0.01702939
0.24424922 -0.5947138 -1.4936081 0.42645004 -1.391216 -0.5597834 0.15427285 0.40519103
-0.98681587 0.5853849 0.7481518 -1.2189238 -1.3327234 0.5948443 -2.4509785 -1.3568238
-0.48695365 0.5099423 -0.08607332 -0.43781686 -2.4179478 0.27687016 0.3248278 0.014395352
-0.8737152 0.39661902 0.27982506 -0.72354937 0.17983118 0.7051726 -2.175865 -0.05491085
-0.3749327 0.1446306 0.44873106 -2.2209518 -0.29810914 0.20350662 -0.3298426 0.6800013
0.08422537 0.17381176 0.3089962 -0.46887708 -0.023638323 -0.5323724 -0.11540302 -0.8554097
0.5614841 0.18122008 -0.29341835 -2.2015135 0.41314787 -1.3022184 0.25152498 0.3772455
0.3747214 0.21079563 -0.29271302 0.24454944 -0.5115724 0.7835146 -1.1512092 -1.830341
-1.5395309 -1.3491224 -0.2607748 0.21565293 -1.5314151 -0.5318239 0.5618825 0.2321565
-1.7677122 -1.1572275 0.6230911 0.44895604 -2.2592833 -0.7292858 -0.9974238 -1.4015374
-1.71438 -0.15173286 0.37497908 -2.4770682 0.2111907 -1.0348883 0.5871534 0.62948024
-0.5536463 -1.7880818 -0.43394664 -0.1555198 0.053932 -0.6718843 0.6354378 -0.6706796
-1.6923562 -1.4036205 0.22636697 0.5038103 -1.5798742 -0.65159065 -0.49777654 -1.5912584
-1.2084064 0.2350555 -1.3219408 0.59104127 -1.9468436 -0.4749561 0.2592374 -1.5567613
-0.7037953 -2.1453428 -1.064918 0.8718689 -2.208024 -0.23904705 -0.2317078 -1.281571

l3.bias f4 [67]
00000000: 49d5 9dbe 13e2 b3be 52fc 9e3e 9be4 6dbe
00000010: a239 d53c f8d0 8fbe b85f dd3e ca35 a8be
00000020: 9c84 d9bd 5df6 cc3e 8bce 043f 2126 c6be
00000030: d2b0 99be f456 c9bd 8741 30be aaa4 8a3e
00000040: fd84 fdb8 f271 ffbe 4e3e 103e a619 ffbd
00000050: 32ac b53e 9ed2 2abe 9e0e 07bf ef9a 29be
00000060: c94c 93be a7a0 a23e 1941 4a3f 9330 3b3e
00000070: e4e7 653f 3a61 233f 0787 0e3f 11a7 be3e
00000080: 0498 c83e 0d28 493f a010 4e3f 15a8 02be
00000090: 8c96 4e3d 18a2 863e 97ff 6d3e 8088 0a3f
000000a0: 4853 8abe eb3e f6be ffbb 10be 39b4 febe
000000b0: f85e 1e3e 08dc f93e ff08 873e c72a bdbe
000000c0: 7975 b33e 5179 bbbe c786 873d 9c99 173f
000000d0: 0baa 9e3e 5eb9 173f 2df2 2cbf 19cc 2bbf
000000e0: 219f 85bf f7c7 3dbe 27e8 bfbe e888 56be
000000f0: 1b21 22bf 8477 b2be 125d 49bd a445 fabe
00000100: 17bb 86bb 217e 7fbe 596c ddbe
-0.30826786 -0.35133418 0.3105188 -0.23231737 0.026028458 -0.28089118 0.4323709 -0.32853538
-0.10620996 0.4003171 0.5187766 -0.38700965 -0.30017716 -0.09831038 -0.17212497 0.27078754
-0.00012088751 -0.4989162 0.14086267 -0.12456064 0.35482937 -0.16681907 -0.5275668 -0.16563009
-0.2876952 0.31763193 0.7900558 0.18280248 0.8980696 0.6382023 0.55674785 0.37236837
0.3917848 0.7857674 0.8049412 -0.1275943 0.05043654 0.26295543 0.23242031 0.5411453
-0.27016664 -0.48094878 -0.14134215 -0.49746874 0.15465915 0.48800683 0.2637405 -0.369467
0.35050562 -0.36615995 0.066175036 0.59218764 0.30989107 0.5926722 -0.6755703 -0.67108303
-1.0439187 -0.18533312 -0.37481806 -0.20950663 -0.63331765 -0.34856808 -0.049161024 -0.48881257
-0.0041116583 -0.24950458 -0.43246725
